SLP2_hw_labs/HW2/Models/baseline-model-given.pt (torch, 12472 bytes, 4 tensors)

linear1.weight f4 [8, 300]
0	0x3d313822	0.043266423
1	0x3d40651f	0.046971437
2	0xbc59376f	-0.013257845
3	0x3d54eee4	0.051985636
4	0xbc4b26e5	-0.01239941
5	0x3c3b1978	0.011419646
6	0xbce1b47c	-0.027551882
7	0x3d0821aa	0.03323523
8	0x3d4c573d	0.049887884
9	0xbd2a0de5	-0.041517157
10	0x3d497a91	0.049189154
11	0x3c2d8885	0.010591631
12	0x3d2b4151	0.041810337
13	0x3bfb242a	0.007664223
14	0x3cdf8a98	0.027287766
15	0xbc02e969	-0.00799022
16	0x3d32b0cb	0.043625634
17	0x3c090c3f	0.008364736
18	0xbcd86d13	-0.026419198
19	0x3c6c5736	0.01442509
20	0xbcd598ba	-0.026073802
21	0xbbd9784b	-0.0066366545
22	0xbcbc4b51	-0.022985132
23	0x3d19c4cb	0.037541192
24	0xbd36f9a7	-0.04467168
25	0xbcd5b936	-0.026089292
26	0xbc82e88b	-0.015980026
27	0xbd0b5fd5	-0.03402694
28	0x3baf05fb	0.005341289
29	0xbd64f169	-0.05589429
30	0x3d5156fb	0.05110834
31	0xbd44e7e8	-0.048072726
32	0x3d32f487	0.04369023
33	0x3c1a4d9e	0.009417919
34	0xbc968844	-0.018375523
35	0x3d0f3d7d	0.03497075
36	0x3c108116	0.008819839
37	0x3d3b48fa	0.045723893
38	0x3bcab8b2	0.006186568
39	0xbc9234d4	-0.017847456
40	0x3c791f59	0.015205228
41	0xbc7b6fbf	-0.015346467
42	0x3cc31bd3	0.023816979
43	0x3d4ef48c	0.050526187
44	0x3d05fe5d	0.032713283
45	0xbccaac1b	-0.02474027
46	0x3d05cf33	0.032668304
47	0x3c25e651	0.0101257125
48	0x3ceb6e6a	0.028739173
49	0xbd0d485e	-0.034492843
50	0xbd6575b4	-0.056020454
51	0xbcb31db0	-0.021864742
52	0xbd31cb8c	-0.043407008
53	0x3d3e333a	0.046435572
54	0x3c8587de	0.016300138
55	0x3cc0074f	0.023440985
56	0x3c929e39	0.017897712
57	0xba81092b	-0.0009844651
58	0x3d356867	0.04428902
59	0xbd24b243	-0.040209066
60	0x3b6984d7	0.0035632157
61	0xbd1e364e	-0.038626008
62	0x3c8ef38b	0.017450115
63	0xbc9fa7aa	-0.019489128
64	0x3c8e0dcf	0.017340569
65	0xbc412c63	-0.011790368
66	0x3d404090	0.04693657
67	0xbd09633f	-0.033541914
68	0xbd0a3e92	-0.033751078
69	0xbd0a40ba	-0.033753134
70	0x3d507d6b	0.050900858
71	0x3c9a7e99	0.018859195
72	0x3d5f0c7b	0.05445526
73	0xbd3f4c57	-0.046703663
74	0xbd65ea79	-0.056131814
75	0xbd3559e5	-0.044275183
76	0xbd1bedbd	-0.03806852
77	0x3cbbc69a	0.022921849
78	0x3ca600d6	0.02026407
79	0x3d409b80	0.047023296
80	0xbcef69eb	-0.02922531
81	0xbd1e0527	-0.038579132
82	0x3cf5f997	0.03002624
83	0xbcbb636f	-0.022874562
84	0x3d0caf31	0.034346763
85	0xbc5c0633	-0.013429212
86	0x3d049984	0.032372966
87	0xbd3419b3	-0.04396982
88	0xbce9f462	-0.028558914
89	0x3c8d570f	0.017253427
90	0x3c44042b	0.011963884
91	0xbc6c658f	-0.01442851
92	0x3d0a2b16	0.033732496
93	0x3d1d943f	0.038471457
94	0xbd281830	-0.041038692
95	0xbcf7800e	-0.030212428
96	0x3d543fe0	0.05181873
97	0xbc9c6eda	-0.019095827
98	0xbca45a62	-0.02006263
99	0xbd604996	-0.054757677
100	0xbd04be90	-0.032408297
101	0x3c679df1	0.014136777
102	0xbbf4c45f	-0.0074696983
103	0xbd284277	-0.04107901
104	0x3aadfdde	0.0013274511
105	0xbd1e566e	-0.038656645
106	0xbd44a851	-0.04801208
107	0xbcff493f	-0.031162856
108	0xbd4adf8d	-0.0495296
109	0xbd139860	-0.036033988
110	0x3d67b554	0.056569412
111	0x3c2f1fc5	0.010688727
112	0x3c8edcb9	0.017439233
113	0xbd583201	-0.052782062
114	0xbd183d51	-0.03716785
115	0xbc9a4fb0	-0.018836826
116	0x3c10fc99	0.0088492865
117	0xbd4bf702	-0.049796112
118	0xbcc7c07a	-0.024383772
119	0xbd0ac54f	-0.033879574
120	0x39247260	0.00015682867
121	0xbcac819d	-0.021057898
122	0xbb808066	-0.0039215563
123	0xbd1d12eb	-0.03834812
124	0xbd1f1b10	-0.03884417
125	0xbd073b61	-0.033015613
126	0xbc9eb038	-0.019371137
127	0xbd36f45c	-0.044666633
128	0x3d425b44	0.04745032
129	0xbc3803db	-0.011231388
130	0x3d477068	0.048691183
131	0x3c9072e8	0.017632917
132	0xbd444966	-0.04792156
133	0x3d2069be	0.039163344
134	0xbc7f1cfa	-0.015570873
135	0xbcb1b58e	-0.021693017
136	0xbd4068d6	-0.04697498
137	0xbd667208	-0.056261092
138	0x3c84a3eb	0.016191443
139	0xbc4a8a4e	-0.012362076
140	0x3cb47d4c	0.022032402
141	0xbd3e3a9a	-0.046442606
142	0x3d2c1826	0.042015217
143	0xbd2a2726	-0.04154124
144	0xbc201a20	-0.009771854
145	0x3c41a9c6	0.011820262
146	0x3cef5553	0.02921549
147	0x3d3b223a	0.045686938
148	0x3d5328d1	0.051552597
149	0xbd37cc6e	-0.044872694
150	0x3c69584e	0.014242245
151	0xbcc767d1	-0.024341496
152	0xbbcb3690	-0.0062015727
153	0xbd2d7fcd	-0.04235821
154	0x3d5322d9	0.051546905
155	0xbd2a2106	-0.0415354
156	0x3cf7c541	0.030245425
157	0x3ca2ed3b	0.01988851
158	0x3c96a620	0.018389761
159	0xbcfaa478	-0.030596003
160	0x3d52b1ae	0.05143898
161	0x3c4bc070	0.012436017
162	0x3bee8c92	0.007279941
163	0xbd4c4624	-0.04987158
164	0x3cc29cf5	0.023756484
165	0xbc0b1936	-0.0084898975
166	0xbcd462b0	-0.025925964
167	0x3d471a5c	0.048609123
168	0x3c4eb799	0.012617015
169	0xbd003fb9	-0.03131077
170	0xbceaa520	-0.02864319
171	0xbb311d99	-0.0027025698
172	0x3d016d76	0.03159853
173	0xbc6cee12	-0.014461057
174	0xbd04423a	-0.03228972
175	0xbc9ec17e	-0.019379374
176	0xbd2d2bd4	-0.042278126
177	0x3ca55587	0.020182384
178	0x3d336bf7	0.043804135
179	0xbd5a3994	-0.053277567
180	0x3c575782	0.013143422
181	0x3cef7dab	0.029234728
182	0x3c2820be	0.010261713
183	0xbca51942	-0.020153645
184	0x3cf1f8a8	0.029537514
185	0x3cf3a079	0.029739605
186	0x3cad5a17	0.021161122
187	0xbc22ed9f	-0.009944349
188	0xbc7585cd	-0.014985514
189	0x3bc66272	0.006054216
190	0xbc23cb01	-0.00999713
191	0xbc8a2715	-0.016864339
192	0x3d142ae2	0.03617371
193	0x3d47353d	0.048634756
194	0xbbb79477	-0.005602415
195	0xbc4f98a3	-0.012670669
196	0x3a587a7c	0.00082579977
197	0xbb5d71e9	-0.003378982
198	0x3c5ee888	0.013605244
199	0x3c81ea6c	0.015858851
200	0xbd528873	-0.05139966
201	0xbcab15cc	-0.020884417
202	0x3d43346c	0.047657415
203	0x3cb498cd	0.022045517
204	0xbb387743	-0.0028147257
205	0xbd0bc0c1	-0.03411937
206	0xbd0dd0da	-0.034623004
207	0xbd4fa349	-0.05069283
208	0xbc971d95	-0.018446723
209	0x3c9c8f17	0.0191112
210	0x3d13ccd1	0.036084
211	0x3cd60ac0	0.026128173
212	0xbd4ce5b8	-0.050023764
213	0xbd0b652b	-0.03403203
214	0xbc1253b5	-0.00893109
215	0x3d603b0c	0.05474381
216	0x3c062035	0.00818639
217	0xbc701ddc	-0.0146555565
218	0x3cbfcc2f	0.023412792
219	0xbcb0936f	-0.021554677
220	0xbd160882	-0.036629207
221	0x3d292fe7	0.04130545
222	0xbcd2cc7f	-0.025732277
223	0xbc39df37	-0.0113447225
224	0xbd669839	-0.056297515
225	0x3d1b22e3	0.037875067
226	0x3d2f9e73	0.04287572
227	0x3ca8f51b	0.020624688
228	0xbd21a0a1	-0.03945983
229	0xbd64c58d	-0.05585246
230	0xbd3c4322	-0.04596246
231	0x3d2cda42	0.042200334
232	0x3cde9379	0.02716993
233	0x3d430f55	0.047622044
234	0x3cf2dd72	0.029646609
235	0x3c6aaa7f	0.014322876
236	0xba114689	-0.00055418216
237	0xbd3048d8	-0.04303822
238	0xbd469954	-0.04848607
239	0xbd58d018	-0.05293283
240	0x3cbdc786	0.02316643
241	0xbce39c9b	-0.027784636
242	0xbc3a99c0	-0.011389196
243	0xbd0566cb	-0.032568734
244	0xbc28f4fc	-0.010312315
245	0xbd2325f2	-0.03983111
246	0xbd17760c	-0.036977813
247	0x3c99c7cb	0.018772027
248	0xbc89c799	-0.016818808
249	0x3d0f197c	0.034936413
250	0xbc94b9ef	-0.018155066
251	0xbd2a0a47	-0.041513707
252	0xbc2397ed	-0.009984952
253	0xbce0ba5b	-0.027432611
254	0xbc8dd57c	-0.017313711
255	0xbd5cabef	-0.053874906

linear1.bias f4 [8]
0	0xbd324f39	-0.043532584
1	0xbd08e1da	-0.033418514
2	0x3b1a2526	0.0023520677
3	0x3eaa713b	0.33289513
4	0xbd245f34	-0.040129855
5	0xbcb2a861	-0.021808805
6	0x3ed62036	0.4182145
7	0x3e0388df	0.12845181

linear2.weight f4 [9, 8]
0	0xbe908db1	-0.28233102
1	0x3d9ae66c	0.07563481
2	0xc00c3c47	-2.191179
3	0x3f96d594	1.1783929
4	0x3eb492fd	0.35268393
5	0xbe27d1ac	-0.16388577
6	0xbfdcc643	-1.7248005
7	0x40009dd5	2.0096333
8	0xbea03fc8	-0.3129866
9	0x3e9e4d85	0.30918518
10	0x38282f00	4.0098093e-05
11	0x3f1c294e	0.61000526
12	0xbe5ddee2	-0.21667054
13	0xbe7032f5	-0.23456939
14	0x3fe59da7	1.7938737
15	0xbfafd043	-1.3735431
16	0x3e8994de	0.2687139
17	0x3e946501	0.2898331
18	0xc010d5a2	-2.263039
19	0xbf3afc35	-0.7304109
20	0xbb548038	-0.0032425057
21	0xbda4dd8d	-0.0805007
22	0x401523fb	2.330321
23	0xc010efff	-2.2646482
24	0xbe91a832	-0.28448635
25	0x3e732d8c	0.23747844
26	0xc0067de6	-2.1014342
27	0x4001cea1	2.0282366
28	0x3dc6a365	0.09699134
29	0x3dace18e	0.08441459
30	0x3f9c7c59	1.2225448
31	0x3f06ebe1	0.5270367
32	0xbd601337	-0.054705825
33	0x3d7b7cb9	0.06139824
34	0x3faef0a2	1.3667185
35	0xc002ea99	-2.0455687
36	0x3e3a5d12	0.18199566
37	0xbe51466a	-0.20437017
38	0x3ff9bc4c	1.9510589
39	0x3fce6a0f	1.6126117
40	0xbd0d66b4	-0.034521773
41	0xbc339e83	-0.010963085
42	0x3fbb64b6	1.464011
43	0x402e06e7	2.7191713
44	0x3e82eb42	0.25570112
45	0x3d6eb639	0.05827925
46	0xbf8a8efa	-1.0824883
47	0xc0171c7a	-2.361113
48	0x3e8d5604	0.27604687
49	0x3e7f4cb2	0.249316
50	0x40063149	2.0967581
51	0x3bc3556d	0.0059611113
52	0x3e57ff04	0.21093374
53	0xbd07b0b0	-0.033127487
54	0xbff4e4db	-1.9132341
55	0x3f78b892	0.9715663
56	0x3d1b9708	0.03798583
57	0xbe13aad0	-0.14420629
58	0x3f5b20c5	0.8559688
59	0x3e7b56a1	0.24544765
60	0x3e2b8324	0.16749245
61	0xbeaa23cd	-0.3323044
62	0xbff3e268	-1.9053469
63	0xbde80cd5	-0.113305725
64	0xbe1f2f7b	-0.15545456
65	0x3e16af0e	0.14715216
66	0x3fdd5442	1.7291338
67	0xbf98621c	-1.1904941
68	0x3e416222	0.18885091
69	0x3e3d6f99	0.18499602
70	0xbfdb91ca	-1.7153866
71	0x3f05cd48	0.5226636

linear2.bias f4 [9]
0	0x3ed03f82	0.40673453
1	0x3dc150f6	0.0943927
2	0x3ff0b4e7	1.8805207
3	0xbf83d794	-1.0300164
4	0xbfcefdaa	-1.6171162
5	0xbfbaa98f	-1.4582995
6	0xbf362ffe	-0.7116698
7	0x3f265558	0.64973974
8	0x3eeda01b	0.46411213
